net/weights/default.pt (torch, 13477 bytes, 5 tensors)

0.weight f4 [50, 3]
00000000: 0e52 6cbc 4faa 6abe 50ab 4540 7b28 8ebc
00000010: d475 593f b49f 4140 aeb5 203d a92d 07c0
00000020: 7a62 05c0 77b4 5c3d 5e3a 69c0 df84 64bf
00000030: b587 59bc 5e39 a440 ac2c 82c0 72b4 61bd
00000040: 43fc a940 e1c9 38bf 5596 093d 5427 1ec1
00000050: 8ea6 a040 f4b0 713d 1fa7 a3bf 36ff 0ec0
00000060: 93c7 0d3d 63fb 1a41 786c d4c0 8b30 6b3d
00000070: cd5e 23c0 f9d4 ebbf 939f 0a3a afa0 36c0
00000080: 428e 8940 a0cb bfbc aaa9 273d 84c6 cf3f
00000090: 1d98 3739 1d6c 0d3f 952a 1b40 58ac a13b
000000a0: f70b 04c0 30c0 4540 1ae6 133d c44c 0c40
000000b0: 190f 8dc0 89ea 49bd b731 9640 f973 8a3e
000000c0: 2da1 be3b f9b9 f53f d99b 4ac0 b65c 7cbc
000000d0: c666 81bc 103b 3140 b678 373c 24c4 eabe
000000e0: d661 c93f a0cd a53c 51e2 93be 8377 103f
000000f0: f1dd a33c 26b4 43bd 16e1 41c0 2500 fabc
00000100: 8c4a 56bf a525 8240 0d40 b6bd f2ea 3f40
00000110: b27e c93f 528d a1bd 1cc8 c13f c4e1 2040
00000120: f189 3fba ce12 2fbf 0312 1640 27dc 86bd
00000130: a701 2840 d0ca c2bb d010 e3bc 7b27 0640
00000140: cef0 1640 accd a93d a41c 6b3d 7246 7fc0
00000150: 7c5e efbe d092 8041 dc0e ffc0 033c 9ebd
00000160: 4649 cc3f 278b 2940 268a f03c 4bc7 a83e
00000170: 92e1 4dc0 b30b 49bf 2073 8241 26cd eec0
00000180: 5204 af3d 4a19 67c0 8e9b 9cbf 505d be3c
00000190: be44 30c1 28be c940 5a4c 5d3b ef9e 19c1
000001a0: e2e6 e840 764e 36bd cdaa a23f 829a 8040
000001b0: 5eab bb3d b896 96c0 8f2f 97be 5bfb 673d
000001c0: cd0f f0bf cfbe 36c0 f3b5 2d3d a77c 0ec0
000001d0: 2ed4 06c0 2731 6fbd 485c d23f e27a 2140
000001e0: bac7 df3c 0e6c 26bf 6143 33c0 363f acbd
000001f0: e515 7040 b76d d13e cb6f e63c f3a3 9fbf
00000200: 17db 0cc0 d021 7bbd 5784 78bc 2140 4640
00000210: 9f1c a3bd c042 4840 2f8b f73f 81e4 d63c
00000220: c458 d83e c89a 47c0 1f98 7b3d 3e69 61c0
00000230: 2076 e0be 8e5d adbc e031 ba3e 0a52 9a3e
00000240: 407b 1e3d a695 06c1 2a73 7140 97de cebd
00000250: e2b1 6b40 486d c53f
-0.01442386 -0.2291653 3.088581 -0.017353287 0.84945416 3.0253725 0.039235763 -2.1121619
-2.0841355 0.053883042 -3.6441875 -0.89265245 -0.013276984 5.132003 -4.067953 -0.055103727
5.3120437 -0.7218304 0.033590633 -9.884602 5.0203314 0.059006646 -1.2785376 -2.2343268
0.034614157 9.686374 -6.638241 0.05741934 -2.5526612 -1.8424369 0.00052880606 -2.8535573
4.2986155 -0.023412526 0.04093329 1.6232457 0.00017508907 0.5524309 2.424474 0.004933875
-2.0632303 3.0898552 0.036108114 2.1921854 -4.408093 -0.049295936 4.6935687 0.27041605
0.0058175535 1.9197379 -3.1657622 -0.015402963 -0.015796077 2.76923 0.011198213 -0.45852768
1.5732982 0.020239651 -0.28883603 0.5643236 0.02000329 -0.047779225 -3.0293632 -0.030517647
-0.837075 4.0670953 -0.088989355 2.998715 1.5741789 -0.07888283 1.5139194 2.5137796
-0.00073066266 -0.6838807 2.3448493 -0.065849595 2.6251009 -0.0059445873 -0.027717978 2.0961597
2.3584476 0.08291182 0.05740036 -3.9886746 -0.46751773 16.071686 -7.970564 -0.0772629
1.5959861 2.6491182 0.02936275 0.32964548 -3.2168927 -0.78533477 16.306213 -7.4625425
0.08545746 -3.6109185 -1.2234972 0.023237854 -11.016783 6.3044624 0.0033767433 -9.601302
7.278184 -0.04450842 1.2708374 4.018861 0.09163545 -4.7058983 -0.29528472 0.056636196
-1.8754822 -2.855396 0.04240985 -2.2263582 -2.1067004 -0.058396485 1.6434412 2.5231252
0.027316917 -0.6500863 -2.8009875 -0.08410494 3.7513363 0.40904018 0.028129479 -1.2471908
-2.2008722 -0.061311543 -0.015168271 3.097664 -0.079644434 3.129074 1.933935 0.026232006
0.42255223 -3.118822 0.06142437 -3.5220485 -0.43840122 -0.021162774 0.36366177 0.30140716
0.03869176 -8.411535 3.772654 -0.101010494 3.682732 1.5423975

0.bias f4 [50]
00000000: 1383 73bf 0404 b3bf ce52 70c0 c82e 16c0
00000010: 0f1b cc3f e9ba 25bf 3919 49c0 6883 3bbe
00000020: 038e dc3e 1df7 72bf 7259 abbf a45e 0540
00000030: 55c1 d4bf 4764 30c0 0778 993e c521 4140
00000040: 4c26 c83f a795 90bf 1a2d 75c0 db73 11c0
00000050: c00c 8b3f 5297 e43f ab5b fb3f ab7a eb3f
00000060: b6fd 34c0 63de 4f40 7fea 1bc0 eae4 3ebf
00000070: 45a3 3f40 1966 e03e debc 9c3f a45b 0940
00000080: 0d7e 2bbf c985 0fc0 8216 54be a23d 3d3e
00000090: b852 6f3e cbcc e93f 88c2 b1be 481d 13bf
000000a0: 56c8 d33e 4142 0740 9b48 ed3f b229 8b3e
000000b0: 4700 0a40 a27d b53f 39ad 17c0 fd36 3840
000000c0: c281 42c0 a97b 1f40
-0.9512188 -1.39856 -3.755054 -2.3466053 1.5945758 -0.6473833 -3.1421645 -0.18311846
0.43077096 -0.94908315 -1.3386672 2.0839014 -1.66215 -2.7561204 0.29974386 3.0176861
1.5636687 -1.129567 -3.8308778 -2.2726963 1.0863266 1.7858679 1.963735 1.839681
-2.8279853 3.2479484 -2.4361875 -0.74568045 2.9943402 0.43827894 1.2245138 2.1462183
-0.66989213 -2.2425406 -0.20711711 0.18480542 0.23371398 1.8265623 -0.34718728 -0.57466555
0.41363782 2.1134188 1.8537782 0.27180248 2.156267 1.4178965 -2.3699477 2.8783562
-3.0391698 2.4919226

1.weight f4 [50, 50]
00000000: f34e 5a3d a8d0 5e3f 3f07 8abe 4354 673f
00000010: f55b 45c0 2999 33bf db25 dd3f 4f13 02be
00000020: 4432 d6be c7d2 f4bc cd0d 4d3f 463b 1a3d
00000030: 4c79 753d 0e5b 3440 d884 b7bf e289 d8be
00000040: c710 bfbf 52e7 12bf 8d76 9740 9e92 a43c
00000050: 006f e13e f271 863e efd9 fabe 0386 1ebf
00000060: b7aa 2840 ad98 f7be 94d9 073f 6d49 d9bd
00000070: c466 003f 1f84 06bf 0169 4cbf 7db6 bc3e
00000080: ee7a de3e 7962 903f e686 953f e894 e33e
00000090: 614f 133f f0f5 ddbf 2a7d 01bf c747 4a3e
000000a0: 6eab 543e b825 9bbf 8084 5fbe 13f9 1b3f
000000b0: ae32 15bf c361 f6bf 0515 cd3f 18ab c5be
000000c0: e42e 0040 e1ca 903d 8300 093f 0768 773f
000000d0: b1ca 183f ed65 9b3e 1f32 303d dd80 313f
000000e0: 9cfd e83e d29d 853f 7253 b03e 3afd 9f3f
000000f0: 3565 833f 6e43 663e 61b8 35be 5c19 5e3f
00000100: 7b69 11bd 4c5d 9a3f 422a abbf b63e 033e
00000110: d8cc 833d a4cc adbd 454b 823e 8586 f7bd
00000120: 5420 53bf 813e 803e c14b 643d 4d8f 9c3e
00000130: 1243 773f 5d0b 863f bb44 0a3e d0ce 973d
00000140: e2c8 b2bd d471 073e f72a 0b3f d305 94be
00000150: 8077 eb3a 36a8 0abf c9c6 413f 06e4 19bf
00000160: 32ac 503e 2b87 873f ab59 c63e 884c 92ba
00000170: 9c1c c5bf a671 ecbe 6bcd 6c3e b48e 2fbf
00000180: 8c26 b8bd 4b1b d6be 5489 16bf bd59 cb3e
00000190: 0f91 90be 9777 633e e8a5 413f 7ea2 d43e
000001a0: bc05 063f 9e2f febc e62c 5f3d 9821 193f
000001b0: eb9b ea3e f6d3 0fbf 2aff 543e c62d 803e
000001c0: 8dc6 08bf c754 20bf bd74 60be 93d6 9ebe
000001d0: f2d9 1d3f 5140 a43e 24a4 0cc0 7209 4a3e
000001e0: 28c6 5abe 8411 1c3f b0be f13e c86d 273f
000001f0: 526d 92bf dda3 dd3e c6f8 7cbf 725d 213f
00000200: 707a c53e c68a 5b3e 4251 cabe 9deb b93e
00000210: 9fda b73e 6dcb 2fbf a102 073f cdf1 cdbf
00000220: f71a 61bd 25a1 c93f 67bc 95be 80f2 3f3f
00000230: ee76 94be 198b f4be d688 d4be 7cf4 1fbf
00000240: 22a9 f6be fc9c cd3e 72c8 033f cba6 8cbe
00000250: c3a5 66bf becc 80bf da4e 02be a742 c33f
00000260: fb2a 183e 2682 673e b5e5 55c0 8d58 813e
00000270: b1b6 a53f a246 3cbf 6e95 77bf 7630 bc3e
00000280: 4f83 b13f b088 c2be 2520 1fbf d221 5040
00000290: c4cf d4bf 885f 31bf ac77 b4be fd7e 893e
000002a0: 8725 9240 857b fe3e 3924 33bf 7b7b a13e
000002b0: 7bb4 1fbe 1f01 b8be db67 8c40 6fb9 dcbe
000002c0: 6d95 933f c81c 9bbe c018 c63e 5421 ae3e
000002d0: d904 97bf 0a92 023f 924c 783e 0000 0c40
000002e0: abd2 1c40 aadd cd3e f30f 303f 55a4 75bf
000002f0: 8dbd 333e 89d8 b93e 0adb 52be f673 5dbf
00000300: 871b 86bf ffd7 b03f f95e c9bf 1e70 26bf
00000310: 789e 953f 0ad6 62ba babe 3040 8806 5fbf
00000320: cd22 9b3f 0798 163f dc80 a9bd df63 8d3f
00000330: b64d 47c0 585e 0dbf fad8 ee3f 40ba 823e
00000340: 611e f7bf 3b85 7f3f 8f27 7e3f 6d6a 7cbe
00000350: eb02 883e 7c9d 6c40 ff66 e5bf b560 86bf
00000360: ceec a3bf fa02 c2bf 91da 8540 e281 43be
00000370: ed72 2fbc 984f 87be a99d 2fbf 143a 8cbf
00000380: 3be8 ec3f cb72 42be 9ea0 d03f a1b0 55bf
00000390: 48d7 db3e 15a4 cf3e edc5 e0be 0261 b43e
000003a0: 6e2f 323f 04f7 2b40 77f7 0140 cadb 0b3f
000003b0: 738d 003f 31a9 55c0 4d12 37be 5796 47be
000003c0: 561e c4bc 34e9 19bf f12b 8abf 28da 463f
000003d0: 4f06 ddbe ae70 22bf a725 b83f bada 0fbf
000003e0: ef4d 2840 bcfb 0abf fcf5 7c3e b709 7b3f
000003f0: 881c d1be 0e5c 9c3f 4dde 04c0 0f73 88bf
0.053297948 0.87037134 -0.26958653 0.9036295 -3.0837376 -0.7015558 1.7277178 -0.12702678
-0.41835225 -0.029885663 0.80099183 0.037654184 0.05993013 2.8180575 -1.4337416 -0.42292696
-1.4926995 -0.57384217 4.7332215 0.020089444 0.4403 0.26258808 -0.48994395 -0.61923236
2.6354196 -0.4835867 0.5306637 -0.10609708 0.5015681 -0.5254535 -0.79847723 0.36857978
0.43453163 1.1280051 1.1681793 0.44449544 0.57543 -1.7340679 -0.5058161 0.19753943
0.2076852 -1.2120886 -0.21827888 0.6092693 -0.58280456 -1.9248585 1.602204 -0.38607097
2.002862 0.07069946 0.53516406 0.9664311 0.5968428 0.303512 0.04301655 0.69337255
0.4550599 1.0438788 0.34438664 1.2499154 1.0265261 0.2248666 -0.17746116 0.86757445
-0.035500985 1.2059722 -1.3372271 0.12816891 0.06435555 -0.08486298 0.2544805 -0.120862044
-0.82471204 0.25047687 0.055736307 0.3057808 0.96586716 1.0472218 0.13502781 0.07412493
-0.087297216 0.13227016 0.54362434 -0.28910694 0.0017964691 -0.5416292 0.7569395 -0.6011356
0.20378187 1.0588125 0.38740286 -0.0011161724 -1.5399356 -0.46180457 0.23125236 -0.6857712
-0.08991727 -0.41817698 -0.58803296 0.39716902 -0.2823567 0.22213589 0.7564378 0.41530222
0.523525 -0.031028565 0.054486178 0.59816885 0.4582208 -0.561828 0.20800462 0.25034922
-0.53427964 -0.6262936 -0.21919532 -0.31023082 0.61660683 0.3208032 -2.1975183 0.19730166
-0.21364653 0.60964227 0.47215796 0.6540189 -1.1439612 0.4328908 -0.988171 0.6303321
0.38569975 0.21439657 -0.3951512 0.3631257 0.35908982 -0.6866978 0.52738386 -1.6089417
-0.054957356 1.5752302 -0.29245302 0.749794 -0.28996986 -0.47762373 -0.41510648 -0.6248243
-0.48175913 0.40158832 0.5147773 -0.27471003 -0.9009668 -1.0062482 -0.12725392 1.5254716
0.14860146 0.22608241 -3.3421452 0.2526287 1.2946378 -0.7354528 -0.96712387 0.36755723
1.3868197 -0.3799491 -0.62158424 3.2520642 -1.6625905 -0.69286394 -0.35247552 0.26854697
4.567081 0.49703613 -0.69977146 0.3153952 -0.15596192 -0.35938355 4.3876777 -0.43110225
1.1529976 -0.30295396 0.38690758 0.34009802 -1.1798354 0.5100409 0.2424796 2.1875
2.4503582 0.4020818 0.68774337 -0.95953876 0.17552777 0.36298016 -0.2059137 -0.8650507
-1.0477151 1.3815917 -1.5732108 -0.6501483 1.1688986 -0.000865311 2.761641 -0.8711934
1.2119995 0.58825725 -0.08276531 1.1046103 -3.114118 -0.5522208 1.8659966 0.25532722
-1.9306146 0.9981267 0.9927911 -0.24649973 0.26564726 3.697112 -1.7922057 -1.0498263
-1.2806642 -1.5157158 4.1829305 -0.19092515 -0.010708553 -0.26427913 -0.68599945 -1.0955224
1.8508371 -0.18989103 1.6299016 -0.8347264 0.42937684 0.40554872 -0.43901005 0.3523026
0.6960362 2.6869516 2.030729 0.54632246 0.50215834 -3.3384516 -0.17878075 -0.19490944
-0.023940247 -0.60121465 -1.079466 0.7767663 -0.43168876 -0.63453186 1.438649 -0.56193125
2.6297567 -0.54290366 0.2470321 0.980617 -0.4084208 1.2215593 -2.0760682 -1.0660113

1.bias f4 [50]
00000000: 6efe b2c0 1db7 1fc0 e050 36bf 7466 a4c0
00000010: 54da a2c0 cf98 80c0 f044 99c0 bde9 2f3f
00000020: 5f65 abc0 54cf 88bf 278c e6c0 8de8 15c0
00000030: eb4d 94c0 ec09 113e c025 f1bf 7d0e b5c0
00000040: f4da 9fc0 8775 b6c0 ed16 60c0 a0d9 fabe
00000050: f2a6 91c0 61d4 82bf 7d80 0a3e 593e d73f
00000060: 7ffe ef3e 013e bdbf 8bd1 29bf 4903 12bf
00000070: fbd7 a1c0 7495 703f ab0a 39c0 5985 68bf
00000080: eace 4ac0 d2e9 6bbe c326 403f 093e 38c0
00000090: ded9 b3bf 7506 adbf 8a09 86bf 047e c0bf
000000a0: 2801 6b3e 8bf9 e7bf 97b1 abc0 8aa4 f4bf
000000b0: be83 c4bf edd2 14c0 f977 85c0 5888 6bbe
000000c0: ad0e 5ebf c06a 44c0
-5.5935583 -2.4955513 -0.71217155 -5.1375065 -5.0891514 -4.0186534 -4.789665 0.6871603
-5.3561244 -1.0688272 -7.2046084 -2.3423188 -4.6345115 0.14163941 -1.8839645 -5.6580186
-4.9954777 -5.7018466 -3.5013993 -0.4899416 -4.551629 -1.0221063 0.13525577 1.6815902
0.46873853 -1.4784547 -0.6633536 -0.5703626 -5.057615 0.9397805 -2.8912761 -0.9082847
-3.168879 -0.23038414 0.75059146 -2.8787863 -1.4050863 -1.3517596 -1.0471661 -1.5038457
0.2294966 -1.812303 -5.3654284 -1.9112713 -1.5352705 -2.325374 -4.170895 -0.2300123
-0.86741143 -3.0690155

3.weight f4 [1, 50]
00000000: b614 273f 1831 433c 374a 67bd fdaa 0a3f
00000010: 7be8 4c3f 3999 e93e 9305 4a3f bdb3 69bf
00000020: 4c1a 3d3f 6b08 febe c90b 863f 7a01 86bf
00000030: 9a90 423f 94af d9bc d91e 87be 18e6 503f
00000040: da49 0d3f dfac 0e3f b818 183f 6d30 5dbf
00000050: 75da 003f a4c9 ebbe ebf7 bdbe 67a5 98be
00000060: 3699 f0be 46d8 b43f 3106 dfbe 0a54 c4bd
00000070: 0268 5f3f d8e1 c7be 41ff 153f aa67 a1bf
00000080: a173 533f 8f21 a3be 096f 3f3f a07c 603f
00000090: 14e4 84be 0ab4 51be 7758 f4bd 35e9 98be
000000a0: 176f 0fc0 97bf 0340 edbe 6a3f 1bf1 01bf
000000b0: e9f9 04bf b3ab 70bd 70b6 523f 1aee b23f
000000c0: 369a 263c e0c0 063f
0.6526598 0.01191356 -0.05646726 0.5416716 0.8004224 0.45624712 0.78914756 -0.91289884
0.7386825 -0.49615797 1.0472347 -1.0469201 0.76001894 -0.02657298 -0.26390722 0.81601095
0.55190814 0.5573253 0.5941272 -0.86402017 0.5033334 -0.46052277 -0.3710321 -0.29813692
-0.4699189 1.4128501 -0.4355941 -0.09586342 0.8726808 -0.39039493 0.5859261 -1.2609761
0.8259831 -0.3186154 0.747788 0.8769016 -0.2595526 -0.20478836 -0.11930936 -0.29865423
-2.2411554 2.0585687 0.9169758 -0.5075852 -0.5194383 -0.058757495 0.8230963 1.3978913
0.010168603 0.52638054
